…
I0316 20:22:59.540554 18688 net.cpp:258] The NetState phase (0) differed from the phase (1) specified by a rule in layer accuracy
I0316 20:22:59.540760 18688 net.cpp:42] Initializing net from parameters: 
name: "CaffeNet"
state {
  phase: TRAIN
}
layer {
  name: "data"
  type: "Data"
  top: "data"
  top: "label"
  include {
    phase: TRAIN
  }
  transform_param {
    mirror: true
    crop_size: 227
    mean_file: "/mnt/neocortex/scratch/bhwang/sharedhome/caffe_ifl/data/ilsvrc12/imagenet_mean.binaryproto"
  }
  data_param {
    source: "/mnt/neocortex/scratch/bhwang/data/ilsvrc12_leveldbs/ilsvrc12_train_leveldb"
    batch_size: 256
    backend: LEVELDB
  }
}
layer {
  name: "conv1"
  type: "Convolution"
  bottom: "data"
  top: "conv1"
  param {
    lr_mult: 1
    decay_mult: 1
  }
  param {
    lr_mult: 2
    decay_mult: 0
  }
  convolution_param {
    num_output: 96
    kernel_size: 11
    stride: 4
    weight_filler {
      type: "gaussian"
      std: 0.01
    }
    bias_filler {
      type: "constant"
      value: 0
    }
  }
}
layer {
  name: "relu1"
  type: "ReLU"
  bottom: "conv1"
  top: "conv1"
}
layer {
  name: "pool1"
  type: "Pooling"
  bottom: "conv1"
  top: "pool1"
  pooling_param {
    pool: MAX
    kernel_size: 3
    stride: 2
  }
}
layer {
  name: "norm1"
  type: "LRN"
  bottom: "pool1"
  top: "norm1"
  lrn_param {
    local_size: 5
    alpha: 0.0001
    beta: 0.75
  }
}
layer {
  name: "conv2"
  type: "Convolution"
  bottom: "norm1"
  top: "conv2"
  param {
    lr_mult: 1
    decay_mult: 1
  }
  param {
    lr_mult: 2
    decay_mult: 0
  }
  convolution_param {
    num_output: 256
    pad: 2
    kernel_size: 5
    group: 2
    weight_filler {
      type: "gaussian"
      std: 0.01
    }
    bias_filler {
      type: "constant"
      value: 1
    }
  }
}
layer {
  name: "relu2"
  type: "ReLU"
  bottom: "conv2"
  top: "conv2"
}
layer {
  name: "pool2"
  type: "Pooling"
  bottom: "conv2"
  top: "pool2"
  pooling_param {
    pool: MAX
    kernel_size: 3
    stride: 2
  }
}
layer {
  name: "norm2"
  type: "LRN"
  bottom: "pool2"
  top: "norm2"
  lrn_param {
    local_size: 5
    alpha: 0.0001
    beta: 0.75
  }
}
layer {
  name: "conv3"
  type: "Convolution"
  bottom: "norm2"
  top: "conv3"
  param {
    lr_mult: 1
    decay_mult: 1
  }
  param {
    lr_mult: 2
    decay_mult: 0
  }
  convolution_param {
    num_output: 384
    pad: 1
    kernel_size: 3
    weight_filler {
      type: "gaussian"
      std: 0.01
    }
    bias_filler {
      type: "constant"
      value: 0
    }
  }
}
layer {
  name: "relu3"
  type: "ReLU"
  bottom: "conv3"
  top: "conv3"
}
layer {
  name: "conv4"
  type: "Convolution"
  bottom: "conv3"
  top: "conv4"
  param {
    lr_mult: 1
    decay_mult: 1
  }
  param {
    lr_mult: 2
    decay_mult: 0
  }
  convolution_param {
    num_output: 384
    pad: 1
    kernel_size: 3
    group: 2
    weight_filler {
      type: "gaussian"
      std: 0.01
    }
    bias_filler {
      type: "constant"
      value: 1
    }
  }
}
layer {
  name: "relu4"
  type: "ReLU"
  bottom: "conv4"
  top: "conv4"
}
layer {
  name: "conv5"
  type: "Convolution"
  bottom: "conv4"
  top: "conv5"
  param {
    lr_mult: 1
    decay_mult: 1
  }
  param {
    lr_mult: 2
    decay_mult: 0
  }
  convolution_param {
    num_output: 256
    pad: 1
    kernel_size: 3
    group: 2
    weight_filler {
      type: "gaussian"
      std: 0.01
    }
    bias_filler {
      type: "constant"
      value: 1
    }
  }
}
layer {
  name: "relu5"
  type: "ReLU"
  bottom: "conv5"
  top: "conv5"
}
layer {
  name: "pool5"
  type: "Pooling"
  bottom: "conv5"
  top: "pool5"
  pooling_param {
    pool: MAX
    kernel_size: 3
    stride: 2
  }
}
layer {
  name: "fc6"
  type: "InnerProduct"
  bottom: "pool5"
  top: "fc6"
  param {
    lr_mult: 1
    decay_mult: 1
  }
  param {
    lr_mult: 2
    decay_mult: 0
  }
  inner_product_param {
    num_output: 4096
    weight_filler {
      type: "gaussian"
      std: 0.005
    }
    bias_filler {
      type: "constant"
      value: 1
    }
  }
}
layer {
  name: "relu6"
  type: "ReLU"
  bottom: "fc6"
  top: "fc6"
}
layer {
  name: "drop6"
  type: "Dropout"
  bottom: "fc6"
  top: "fc6"
  dropout_param {
    dropout_ratio: 0.5
  }
}
layer {
  name: "fc7"
  type: "InnerProduct"
  bottom: "fc6"
  top: "fc7"
  param {
    lr_mult: 1
    decay_mult: 1
  }
  param {
    lr_mult: 2
    decay_mult: 0
  }
  inner_product_param {
    num_output: 4096
    weight_filler {
      type: "gaussian"
      std: 0.005
    }
    bias_filler {
      type: "constant"
      value: 1
    }
  }
}
layer {
  name: "relu7"
  type: "ReLU"
  bottom: "fc7"
  top: "fc7"
}
layer {
  name: "drop7"
  type: "Dropout"
  bottom: "fc7"
  top: "fc7"
  dropout_param {
    dropout_ratio: 0.5
  }
}
layer {
  name: "fc8"
  type: "InnerProduct"
  bottom: "fc7"
  top: "fc8"
  param {
    lr_mult: 1
    decay_mult: 1
  }
  param {
    lr_mult: 2
    decay_mult: 0
  }
  inner_product_param {
    num_output: 1000
    weight_filler {
      type: "gaussian"
      std: 0.01
    }
    bias_filler {
      type: "constant"
      value: 0
    }
  }
}
layer {
  name: "loss"
  type: "SoftmaxWithLoss"
  bottom: "fc8"
  bottom: "label"
  top: "loss"
}
I0316 20:22:59.540910 18688 layer_factory.hpp:74] Creating layer data
I0316 20:22:59.540932 18688 net.cpp:85] Creating Layer data
I0316 20:22:59.540940 18688 net.cpp:339] data -> data
I0316 20:22:59.540974 18688 net.cpp:339] data -> label
I0316 20:22:59.540984 18688 net.cpp:114] Setting up data
I0316 20:22:59.589617 18688 db.cpp:20] Opened leveldb /mnt/neocortex/scratch/bhwang/data/ilsvrc12_leveldbs/ilsvrc12_train_leveldb
I0316 20:22:59.596366 18688 data_layer.cpp:67] output data size: 256,3,227,227
I0316 20:22:59.596385 18688 data_transformer.cpp:22] Loading mean file from: /mnt/neocortex/scratch/bhwang/sharedhome/caffe_ifl/data/ilsvrc12/imagenet_mean.binaryproto
I0316 20:22:59.645326 18688 net.cpp:121] Top shape: 256 3 227 227 (39574272)
I0316 20:22:59.645345 18688 net.cpp:121] Top shape: 256 (256)
I0316 20:22:59.645355 18688 layer_factory.hpp:74] Creating layer conv1
I0316 20:22:59.645373 18688 net.cpp:85] Creating Layer conv1
I0316 20:22:59.645380 18688 net.cpp:381] conv1 <- data
I0316 20:22:59.645395 18688 net.cpp:339] conv1 -> conv1
I0316 20:22:59.645411 18688 net.cpp:114] Setting up conv1
I0316 20:22:59.647373 18688 net.cpp:121] Top shape: 256 96 55 55 (74342400)
I0316 20:22:59.647392 18688 layer_factory.hpp:74] Creating layer relu1
I0316 20:22:59.647402 18688 net.cpp:85] Creating Layer relu1
I0316 20:22:59.647406 18688 net.cpp:381] relu1 <- conv1
I0316 20:22:59.647413 18688 net.cpp:328] relu1 -> conv1 (in-place)
I0316 20:22:59.647420 18688 net.cpp:114] Setting up relu1
I0316 20:22:59.647428 18688 net.cpp:121] Top shape: 256 96 55 55 (74342400)
I0316 20:22:59.647433 18688 layer_factory.hpp:74] Creating layer pool1
I0316 20:22:59.647440 18688 net.cpp:85] Creating Layer pool1
I0316 20:22:59.647445 18688 net.cpp:381] pool1 <- conv1
I0316 20:22:59.647451 18688 net.cpp:339] pool1 -> pool1
I0316 20:22:59.647460 18688 net.cpp:114] Setting up pool1
I0316 20:22:59.647475 18688 net.cpp:121] Top shape: 256 96 27 27 (17915904)
I0316 20:22:59.647480 18688 layer_factory.hpp:74] Creating layer norm1
I0316 20:22:59.647490 18688 net.cpp:85] Creating Layer norm1
I0316 20:22:59.647495 18688 net.cpp:381] norm1 <- pool1
I0316 20:22:59.647501 18688 net.cpp:339] norm1 -> norm1
I0316 20:22:59.647511 18688 net.cpp:114] Setting up norm1
I0316 20:22:59.647521 18688 net.cpp:121] Top shape: 256 96 27 27 (17915904)
I0316 20:22:59.647531 18688 layer_factory.hpp:74] Creating layer conv2
I0316 20:22:59.647563 18688 net.cpp:85] Creating Layer conv2
I0316 20:22:59.647569 18688 net.cpp:381] conv2 <- norm1
I0316 20:22:59.647577 18688 net.cpp:339] conv2 -> conv2
I0316 20:22:59.647584 18688 net.cpp:114] Setting up conv2
I0316 20:22:59.665118 18688 net.cpp:121] Top shape: 256 256 27 27 (47775744)
I0316 20:22:59.665133 18688 layer_factory.hpp:74] Creating layer relu2
I0316 20:22:59.665140 18688 net.cpp:85] Creating Layer relu2
I0316 20:22:59.665145 18688 net.cpp:381] relu2 <- conv2
I0316 20:22:59.665151 18688 net.cpp:328] relu2 -> conv2 (in-place)
I0316 20:22:59.665159 18688 net.cpp:114] Setting up relu2
I0316 20:22:59.665165 18688 net.cpp:121] Top shape: 256 256 27 27 (47775744)
I0316 20:22:59.665170 18688 layer_factory.hpp:74] Creating layer pool2
I0316 20:22:59.665176 18688 net.cpp:85] Creating Layer pool2
I0316 20:22:59.665181 18688 net.cpp:381] pool2 <- conv2
I0316 20:22:59.665187 18688 net.cpp:339] pool2 -> pool2
I0316 20:22:59.665194 18688 net.cpp:114] Setting up pool2
I0316 20:22:59.665202 18688 net.cpp:121] Top shape: 256 256 13 13 (11075584)
I0316 20:22:59.665208 18688 layer_factory.hpp:74] Creating layer norm2
I0316 20:22:59.665215 18688 net.cpp:85] Creating Layer norm2
I0316 20:22:59.665220 18688 net.cpp:381] norm2 <- pool2
I0316 20:22:59.665226 18688 net.cpp:339] norm2 -> norm2
I0316 20:22:59.665233 18688 net.cpp:114] Setting up norm2
I0316 20:22:59.665241 18688 net.cpp:121] Top shape: 256 256 13 13 (11075584)
I0316 20:22:59.665246 18688 layer_factory.hpp:74] Creating layer conv3
I0316 20:22:59.665253 18688 net.cpp:85] Creating Layer conv3
I0316 20:22:59.665258 18688 net.cpp:381] conv3 <- norm2
I0316 20:22:59.665269 18688 net.cpp:339] conv3 -> conv3
I0316 20:22:59.665279 18688 net.cpp:114] Setting up conv3
I0316 20:22:59.714843 18688 net.cpp:121] Top shape: 256 384 13 13 (16613376)
I0316 20:22:59.714861 18688 layer_factory.hpp:74] Creating layer relu3
I0316 20:22:59.714869 18688 net.cpp:85] Creating Layer relu3
I0316 20:22:59.714874 18688 net.cpp:381] relu3 <- conv3
I0316 20:22:59.714881 18688 net.cpp:328] relu3 -> conv3 (in-place)
I0316 20:22:59.714890 18688 net.cpp:114] Setting up relu3
I0316 20:22:59.714895 18688 net.cpp:121] Top shape: 256 384 13 13 (16613376)
I0316 20:22:59.714900 18688 layer_factory.hpp:74] Creating layer conv4
I0316 20:22:59.714908 18688 net.cpp:85] Creating Layer conv4
I0316 20:22:59.714912 18688 net.cpp:381] conv4 <- conv3
I0316 20:22:59.714920 18688 net.cpp:339] conv4 -> conv4
I0316 20:22:59.714927 18688 net.cpp:114] Setting up conv4
I0316 20:22:59.752281 18688 net.cpp:121] Top shape: 256 384 13 13 (16613376)
I0316 20:22:59.752296 18688 layer_factory.hpp:74] Creating layer relu4
I0316 20:22:59.752303 18688 net.cpp:85] Creating Layer relu4
I0316 20:22:59.752308 18688 net.cpp:381] relu4 <- conv4
I0316 20:22:59.752315 18688 net.cpp:328] relu4 -> conv4 (in-place)
I0316 20:22:59.752322 18688 net.cpp:114] Setting up relu4
I0316 20:22:59.752329 18688 net.cpp:121] Top shape: 256 384 13 13 (16613376)
I0316 20:22:59.752334 18688 layer_factory.hpp:74] Creating layer conv5
I0316 20:22:59.752342 18688 net.cpp:85] Creating Layer conv5
I0316 20:22:59.752346 18688 net.cpp:381] conv5 <- conv4
I0316 20:22:59.752353 18688 net.cpp:339] conv5 -> conv5
I0316 20:22:59.752362 18688 net.cpp:114] Setting up conv5
I0316 20:22:59.777287 18688 net.cpp:121] Top shape: 256 256 13 13 (11075584)
I0316 20:22:59.777303 18688 layer_factory.hpp:74] Creating layer relu5
I0316 20:22:59.777310 18688 net.cpp:85] Creating Layer relu5
I0316 20:22:59.777315 18688 net.cpp:381] relu5 <- conv5
I0316 20:22:59.777323 18688 net.cpp:328] relu5 -> conv5 (in-place)
I0316 20:22:59.777330 18688 net.cpp:114] Setting up relu5
I0316 20:22:59.777336 18688 net.cpp:121] Top shape: 256 256 13 13 (11075584)
I0316 20:22:59.777341 18688 layer_factory.hpp:74] Creating layer pool5
I0316 20:22:59.777349 18688 net.cpp:85] Creating Layer pool5
I0316 20:22:59.777354 18688 net.cpp:381] pool5 <- conv5
I0316 20:22:59.777360 18688 net.cpp:339] pool5 -> pool5
I0316 20:22:59.777372 18688 net.cpp:114] Setting up pool5
I0316 20:22:59.777403 18688 net.cpp:121] Top shape: 256 256 6 6 (2359296)
I0316 20:22:59.777410 18688 layer_factory.hpp:74] Creating layer fc6
I0316 20:22:59.777420 18688 net.cpp:85] Creating Layer fc6
I0316 20:22:59.777425 18688 net.cpp:381] fc6 <- pool5
I0316 20:22:59.777431 18688 net.cpp:339] fc6 -> fc6
I0316 20:22:59.777442 18688 net.cpp:114] Setting up fc6
I0316 20:23:02.007525 18688 net.cpp:121] Top shape: 256 4096 (1048576)
I0316 20:23:02.007562 18688 layer_factory.hpp:74] Creating layer relu6
I0316 20:23:02.007575 18688 net.cpp:85] Creating Layer relu6
I0316 20:23:02.007581 18688 net.cpp:381] relu6 <- fc6
I0316 20:23:02.007591 18688 net.cpp:328] relu6 -> fc6 (in-place)
I0316 20:23:02.007601 18688 net.cpp:114] Setting up relu6
I0316 20:23:02.007608 18688 net.cpp:121] Top shape: 256 4096 (1048576)
I0316 20:23:02.007613 18688 layer_factory.hpp:74] Creating layer drop6
I0316 20:23:02.007625 18688 net.cpp:85] Creating Layer drop6
I0316 20:23:02.007629 18688 net.cpp:381] drop6 <- fc6
I0316 20:23:02.007637 18688 net.cpp:328] drop6 -> fc6 (in-place)
I0316 20:23:02.007645 18688 net.cpp:114] Setting up drop6
I0316 20:23:02.007661 18688 net.cpp:121] Top shape: 256 4096 (1048576)
I0316 20:23:02.007666 18688 layer_factory.hpp:74] Creating layer fc7
I0316 20:23:02.007675 18688 net.cpp:85] Creating Layer fc7
I0316 20:23:02.007680 18688 net.cpp:381] fc7 <- fc6
I0316 20:23:02.007688 18688 net.cpp:339] fc7 -> fc7
I0316 20:23:02.007696 18688 net.cpp:114] Setting up fc7
I0316 20:23:02.972756 18688 net.cpp:121] Top shape: 256 4096 (1048576)
I0316 20:23:02.972791 18688 layer_factory.hpp:74] Creating layer relu7
I0316 20:23:02.972803 18688 net.cpp:85] Creating Layer relu7
I0316 20:23:02.972810 18688 net.cpp:381] relu7 <- fc7
I0316 20:23:02.972818 18688 net.cpp:328] relu7 -> fc7 (in-place)
I0316 20:23:02.972829 18688 net.cpp:114] Setting up relu7
I0316 20:23:02.972836 18688 net.cpp:121] Top shape: 256 4096 (1048576)
I0316 20:23:02.972841 18688 layer_factory.hpp:74] Creating layer drop7
I0316 20:23:02.972849 18688 net.cpp:85] Creating Layer drop7
I0316 20:23:02.972854 18688 net.cpp:381] drop7 <- fc7
I0316 20:23:02.972861 18688 net.cpp:328] drop7 -> fc7 (in-place)
I0316 20:23:02.972867 18688 net.cpp:114] Setting up drop7
I0316 20:23:02.972877 18688 net.cpp:121] Top shape: 256 4096 (1048576)
I0316 20:23:02.972880 18688 layer_factory.hpp:74] Creating layer fc8
I0316 20:23:02.972889 18688 net.cpp:85] Creating Layer fc8
I0316 20:23:02.972894 18688 net.cpp:381] fc8 <- fc7
I0316 20:23:02.972901 18688 net.cpp:339] fc8 -> fc8
I0316 20:23:02.972910 18688 net.cpp:114] Setting up fc8
I0316 20:23:03.200903 18688 net.cpp:121] Top shape: 256 1000 (256000)
I0316 20:23:03.200932 18688 layer_factory.hpp:74] Creating layer loss
I0316 20:23:03.200952 18688 net.cpp:85] Creating Layer loss
I0316 20:23:03.200958 18688 net.cpp:381] loss <- fc8
I0316 20:23:03.200966 18688 net.cpp:381] loss <- label
I0316 20:23:03.200974 18688 net.cpp:339] loss -> loss
I0316 20:23:03.200988 18688 net.cpp:114] Setting up loss
I0316 20:23:03.200996 18688 layer_factory.hpp:74] Creating layer loss
…
I0316 20:23:03.202877 18688 net.cpp:258] The NetState phase (1) differed from the phase (0) specified by a rule in layer data
I0316 20:23:03.203076 18688 net.cpp:42] Initializing net from parameters: 
name: "CaffeNet"
state {
  phase: TEST
}
layer {
  name: "data"
  type: "Data"
  top: "data"
  top: "label"
  include {
    phase: TEST
  }
  transform_param {
    mirror: false
    crop_size: 227
    mean_file: "/mnt/neocortex/scratch/bhwang/sharedhome/caffe_ifl/data/ilsvrc12/imagenet_mean.binaryproto"
  }
  data_param {
    source: "/mnt/neocortex/scratch/bhwang/data/ilsvrc12_leveldbs/ilsvrc12_val_leveldb"
    batch_size: 50
    backend: LEVELDB
  }
}
layer {
  name: "conv1"
  type: "Convolution"
  bottom: "data"
  top: "conv1"
  param {
    lr_mult: 1
    decay_mult: 1
  }
  param {
    lr_mult: 2
    decay_mult: 0
  }
  convolution_param {
    num_output: 96
    kernel_size: 11
    stride: 4
    weight_filler {
      type: "gaussian"
      std: 0.01
    }
    bias_filler {
      type: "constant"
      value: 0
    }
  }
}
layer {
  name: "relu1"
  type: "ReLU"
  bottom: "conv1"
  top: "conv1"
}
layer {
  name: "pool1"
  type: "Pooling"
  bottom: "conv1"
  top: "pool1"
  pooling_param {
    pool: MAX
    kernel_size: 3
    stride: 2
  }
}
layer {
  name: "norm1"
  type: "LRN"
  bottom: "pool1"
  top: "norm1"
  lrn_param {
    local_size: 5
    alpha: 0.0001
    beta: 0.75
  }
}
layer {
  name: "conv2"
  type: "Convolution"
  bottom: "norm1"
  top: "conv2"
  param {
    lr_mult: 1
    decay_mult: 1
  }
  param {
    lr_mult: 2
    decay_mult: 0
  }
  convolution_param {
    num_output: 256
    pad: 2
    kernel_size: 5
    group: 2
    weight_filler {
      type: "gaussian"
      std: 0.01
    }
    bias_filler {
      type: "constant"
      value: 1
    }
  }
}
layer {
  name: "relu2"
  type: "ReLU"
  bottom: "conv2"
  top: "conv2"
}
layer {
  name: "pool2"
  type: "Pooling"
  bottom: "conv2"
  top: "pool2"
  pooling_param {
    pool: MAX
    kernel_size: 3
    stride: 2
  }
}
layer {
  name: "norm2"
  type: "LRN"
  bottom: "pool2"
  top: "norm2"
  lrn_param {
    local_size: 5
    alpha: 0.0001
    beta: 0.75
  }
}
layer {
  name: "conv3"
  type: "Convolution"
  bottom: "norm2"
  top: "conv3"
  param {
    lr_mult: 1
    decay_mult: 1
  }
  param {
    lr_mult: 2
    decay_mult: 0
  }
  convolution_param {
    num_output: 384
    pad: 1
    kernel_size: 3
    weight_filler {
      type: "gaussian"
      std: 0.01
    }
    bias_filler {
      type: "constant"
      value: 0
    }
  }
}
layer {
  name: "relu3"
  type: "ReLU"
  bottom: "conv3"
  top: "conv3"
}
layer {
  name: "conv4"
  type: "Convolution"
  bottom: "conv3"
  top: "conv4"
  param {
    lr_mult: 1
    decay_mult: 1
  }
  param {
    lr_mult: 2
    decay_mult: 0
  }
  convolution_param {
    num_output: 384
    pad: 1
    kernel_size: 3
    group: 2
    weight_filler {
      type: "gaussian"
      std: 0.01
    }
    bias_filler {
      type: "constant"
      value: 1
    }
  }
}
layer {
  name: "relu4"
  type: "ReLU"
  bottom: "conv4"
  top: "conv4"
}
layer {
  name: "conv5"
  type: "Convolution"
  bottom: "conv4"
  top: "conv5"
  param {
    lr_mult: 1
    decay_mult: 1
  }
  param {
    lr_mult: 2
    decay_mult: 0
  }
  convolution_param {
    num_output: 256
    pad: 1
    kernel_size: 3
    group: 2
    weight_filler {
      type: "gaussian"
      std: 0.01
    }
    bias_filler {
      type: "constant"
      value: 1
    }
  }
}
layer {
  name: "relu5"
  type: "ReLU"
  bottom: "conv5"
  top: "conv5"
}
layer {
  name: "pool5"
  type: "Pooling"
  bottom: "conv5"
  top: "pool5"
  pooling_param {
    pool: MAX
    kernel_size: 3
    stride: 2
  }
}
layer {
  name: "fc6"
  type: "InnerProduct"
  bottom: "pool5"
  top: "fc6"
  param {
    lr_mult: 1
    decay_mult: 1
  }
  param {
    lr_mult: 2
    decay_mult: 0
  }
  inner_product_param {
    num_output: 4096
    weight_filler {
      type: "gaussian"
      std: 0.005
    }
    bias_filler {
      type: "constant"
      value: 1
    }
  }
}
layer {
  name: "relu6"
  type: "ReLU"
  bottom: "fc6"
  top: "fc6"
}
layer {
  name: "drop6"
  type: "Dropout"
  bottom: "fc6"
  top: "fc6"
  dropout_param {
    dropout_ratio: 0.5
  }
}
layer {
  name: "fc7"
  type: "InnerProduct"
  bottom: "fc6"
  top: "fc7"
  param {
    lr_mult: 1
    decay_mult: 1
  }
  param {
    lr_mult: 2
    decay_mult: 0
  }
  inner_product_param {
    num_output: 4096
    weight_filler {
      type: "gaussian"
      std: 0.005
    }
    bias_filler {
      type: "constant"
      value: 1
    }
  }
}
layer {
  name: "relu7"
  type: "ReLU"
  bottom: "fc7"
  top: "fc7"
}
layer {
  name: "drop7"
  type: "Dropout"
  bottom: "fc7"
  top: "fc7"
  dropout_param {
    dropout_ratio: 0.5
  }
}
layer {
  name: "fc8"
  type: "InnerProduct"
  bottom: "fc7"
  top: "fc8"
  param {
    lr_mult: 1
    decay_mult: 1
  }
  param {
    lr_mult: 2
    decay_mult: 0
  }
  inner_product_param {
    num_output: 1000
    weight_filler {
      type: "gaussian"
      std: 0.01
    }
    bias_filler {
      type: "constant"
      value: 0
    }
  }
}
layer {
  name: "accuracy"
  type: "Accuracy"
  bottom: "fc8"
  bottom: "label"
  top: "accuracy"
  include {
    phase: TEST
  }
}
layer {
  name: "loss"
  type: "SoftmaxWithLoss"
  bottom: "fc8"
  bottom: "label"
  top: "loss"
}
I0316 20:23:03.203208 18688 layer_factory.hpp:74] Creating layer data
I0316 20:23:03.203223 18688 net.cpp:85] Creating Layer data
I0316 20:23:03.203230 18688 net.cpp:339] data -> data
I0316 20:23:03.203240 18688 net.cpp:339] data -> label
I0316 20:23:03.203248 18688 net.cpp:114] Setting up data
I0316 20:23:03.231292 18688 db.cpp:20] Opened leveldb /mnt/neocortex/scratch/bhwang/data/ilsvrc12_leveldbs/ilsvrc12_val_leveldb
I0316 20:23:03.235054 18688 data_layer.cpp:67] output data size: 50,3,227,227
I0316 20:23:03.235069 18688 data_transformer.cpp:22] Loading mean file from: /mnt/neocortex/scratch/bhwang/sharedhome/caffe_ifl/data/ilsvrc12/imagenet_mean.binaryproto
I0316 20:23:03.245432 18688 net.cpp:121] Top shape: 50 3 227 227 (7729350)
I0316 20:23:03.245447 18688 net.cpp:121] Top shape: 50 (50)
I0316 20:23:03.245453 18688 layer_factory.hpp:74] Creating layer label_data_1_split
I0316 20:23:03.245465 18688 net.cpp:85] Creating Layer label_data_1_split
I0316 20:23:03.245470 18688 net.cpp:381] label_data_1_split <- label
I0316 20:23:03.245476 18688 net.cpp:339] label_data_1_split -> label_data_1_split_0
I0316 20:23:03.245486 18688 net.cpp:339] label_data_1_split -> label_data_1_split_1
I0316 20:23:03.245494 18688 net.cpp:114] Setting up label_data_1_split
I0316 20:23:03.245502 18688 net.cpp:121] Top shape: 50 (50)
I0316 20:23:03.245508 18688 net.cpp:121] Top shape: 50 (50)
I0316 20:23:03.245512 18688 layer_factory.hpp:74] Creating layer conv1
I0316 20:23:03.245525 18688 net.cpp:85] Creating Layer conv1
I0316 20:23:03.245548 18688 net.cpp:381] conv1 <- data
I0316 20:23:03.245555 18688 net.cpp:339] conv1 -> conv1
I0316 20:23:03.245564 18688 net.cpp:114] Setting up conv1
I0316 20:23:03.247496 18688 net.cpp:121] Top shape: 50 96 55 55 (14520000)
I0316 20:23:03.247511 18688 layer_factory.hpp:74] Creating layer relu1
I0316 20:23:03.247519 18688 net.cpp:85] Creating Layer relu1
I0316 20:23:03.247524 18688 net.cpp:381] relu1 <- conv1
I0316 20:23:03.247529 18688 net.cpp:328] relu1 -> conv1 (in-place)
I0316 20:23:03.247536 18688 net.cpp:114] Setting up relu1
I0316 20:23:03.247544 18688 net.cpp:121] Top shape: 50 96 55 55 (14520000)
I0316 20:23:03.247548 18688 layer_factory.hpp:74] Creating layer pool1
I0316 20:23:03.247555 18688 net.cpp:85] Creating Layer pool1
I0316 20:23:03.247560 18688 net.cpp:381] pool1 <- conv1
I0316 20:23:03.247566 18688 net.cpp:339] pool1 -> pool1
I0316 20:23:03.247573 18688 net.cpp:114] Setting up pool1
I0316 20:23:03.247583 18688 net.cpp:121] Top shape: 50 96 27 27 (3499200)
I0316 20:23:03.247588 18688 layer_factory.hpp:74] Creating layer norm1
I0316 20:23:03.247596 18688 net.cpp:85] Creating Layer norm1
I0316 20:23:03.247599 18688 net.cpp:381] norm1 <- pool1
I0316 20:23:03.247606 18688 net.cpp:339] norm1 -> norm1
I0316 20:23:03.247612 18688 net.cpp:114] Setting up norm1
I0316 20:23:03.247620 18688 net.cpp:121] Top shape: 50 96 27 27 (3499200)
I0316 20:23:03.247625 18688 layer_factory.hpp:74] Creating layer conv2
I0316 20:23:03.247632 18688 net.cpp:85] Creating Layer conv2
I0316 20:23:03.247637 18688 net.cpp:381] conv2 <- norm1
I0316 20:23:03.247647 18688 net.cpp:339] conv2 -> conv2
I0316 20:23:03.247654 18688 net.cpp:114] Setting up conv2
I0316 20:23:03.264679 18688 net.cpp:121] Top shape: 50 256 27 27 (9331200)
I0316 20:23:03.264693 18688 layer_factory.hpp:74] Creating layer relu2
I0316 20:23:03.264703 18688 net.cpp:85] Creating Layer relu2
I0316 20:23:03.264708 18688 net.cpp:381] relu2 <- conv2
I0316 20:23:03.264714 18688 net.cpp:328] relu2 -> conv2 (in-place)
I0316 20:23:03.264720 18688 net.cpp:114] Setting up relu2
I0316 20:23:03.264727 18688 net.cpp:121] Top shape: 50 256 27 27 (9331200)
I0316 20:23:03.264732 18688 layer_factory.hpp:74] Creating layer pool2
I0316 20:23:03.264739 18688 net.cpp:85] Creating Layer pool2
I0316 20:23:03.264745 18688 net.cpp:381] pool2 <- conv2
I0316 20:23:03.264752 18688 net.cpp:339] pool2 -> pool2
I0316 20:23:03.264760 18688 net.cpp:114] Setting up pool2
I0316 20:23:03.264768 18688 net.cpp:121] Top shape: 50 256 13 13 (2163200)
I0316 20:23:03.264773 18688 layer_factory.hpp:74] Creating layer norm2
I0316 20:23:03.264781 18688 net.cpp:85] Creating Layer norm2
I0316 20:23:03.264786 18688 net.cpp:381] norm2 <- pool2
I0316 20:23:03.264792 18688 net.cpp:339] norm2 -> norm2
I0316 20:23:03.264799 18688 net.cpp:114] Setting up norm2
I0316 20:23:03.264807 18688 net.cpp:121] Top shape: 50 256 13 13 (2163200)
I0316 20:23:03.264811 18688 layer_factory.hpp:74] Creating layer conv3
I0316 20:23:03.264821 18688 net.cpp:85] Creating Layer conv3
I0316 20:23:03.264825 18688 net.cpp:381] conv3 <- norm2
I0316 20:23:03.264832 18688 net.cpp:339] conv3 -> conv3
I0316 20:23:03.264839 18688 net.cpp:114] Setting up conv3
I0316 20:23:03.315366 18688 net.cpp:121] Top shape: 50 384 13 13 (3244800)
I0316 20:23:03.315402 18688 layer_factory.hpp:74] Creating layer relu3
I0316 20:23:03.315414 18688 net.cpp:85] Creating Layer relu3
I0316 20:23:03.315420 18688 net.cpp:381] relu3 <- conv3
I0316 20:23:03.315429 18688 net.cpp:328] relu3 -> conv3 (in-place)
I0316 20:23:03.315439 18688 net.cpp:114] Setting up relu3
I0316 20:23:03.315448 18688 net.cpp:121] Top shape: 50 384 13 13 (3244800)
I0316 20:23:03.315451 18688 layer_factory.hpp:74] Creating layer conv4
I0316 20:23:03.315464 18688 net.cpp:85] Creating Layer conv4
I0316 20:23:03.315469 18688 net.cpp:381] conv4 <- conv3
I0316 20:23:03.315476 18688 net.cpp:339] conv4 -> conv4
I0316 20:23:03.315485 18688 net.cpp:114] Setting up conv4
I0316 20:23:03.364758 18688 net.cpp:121] Top shape: 50 384 13 13 (3244800)
I0316 20:23:03.364797 18688 layer_factory.hpp:74] Creating layer relu4
I0316 20:23:03.364914 18688 net.cpp:85] Creating Layer relu4
I0316 20:23:03.364923 18688 net.cpp:381] relu4 <- conv4
I0316 20:23:03.364934 18688 net.cpp:328] relu4 -> conv4 (in-place)
I0316 20:23:03.364945 18688 net.cpp:114] Setting up relu4
I0316 20:23:03.364953 18688 net.cpp:121] Top shape: 50 384 13 13 (3244800)
I0316 20:23:03.364959 18688 layer_factory.hpp:74] Creating layer conv5
I0316 20:23:03.364969 18688 net.cpp:85] Creating Layer conv5
I0316 20:23:03.364972 18688 net.cpp:381] conv5 <- conv4
I0316 20:23:03.364981 18688 net.cpp:339] conv5 -> conv5
I0316 20:23:03.364990 18688 net.cpp:114] Setting up conv5
I0316 20:23:03.398496 18688 net.cpp:121] Top shape: 50 256 13 13 (2163200)
I0316 20:23:03.398524 18688 layer_factory.hpp:74] Creating layer relu5
I0316 20:23:03.398605 18688 net.cpp:85] Creating Layer relu5
I0316 20:23:03.398614 18688 net.cpp:381] relu5 <- conv5
I0316 20:23:03.398628 18688 net.cpp:328] relu5 -> conv5 (in-place)
I0316 20:23:03.398639 18688 net.cpp:114] Setting up relu5
I0316 20:23:03.398648 18688 net.cpp:121] Top shape: 50 256 13 13 (2163200)
I0316 20:23:03.398653 18688 layer_factory.hpp:74] Creating layer pool5
I0316 20:23:03.398663 18688 net.cpp:85] Creating Layer pool5
I0316 20:23:03.398668 18688 net.cpp:381] pool5 <- conv5
I0316 20:23:03.398674 18688 net.cpp:339] pool5 -> pool5
I0316 20:23:03.398682 18688 net.cpp:114] Setting up pool5
I0316 20:23:03.398692 18688 net.cpp:121] Top shape: 50 256 6 6 (460800)
I0316 20:23:03.398697 18688 layer_factory.hpp:74] Creating layer fc6
I0316 20:23:03.398708 18688 net.cpp:85] Creating Layer fc6
I0316 20:23:03.398713 18688 net.cpp:381] fc6 <- pool5
I0316 20:23:03.398722 18688 net.cpp:339] fc6 -> fc6
I0316 20:23:03.398731 18688 net.cpp:114] Setting up fc6
I0316 20:23:05.611387 18688 net.cpp:121] Top shape: 50 4096 (204800)
I0316 20:23:05.611426 18688 layer_factory.hpp:74] Creating layer relu6
I0316 20:23:05.611439 18688 net.cpp:85] Creating Layer relu6
I0316 20:23:05.611445 18688 net.cpp:381] relu6 <- fc6
I0316 20:23:05.611454 18688 net.cpp:328] relu6 -> fc6 (in-place)
I0316 20:23:05.611465 18688 net.cpp:114] Setting up relu6
I0316 20:23:05.611472 18688 net.cpp:121] Top shape: 50 4096 (204800)
I0316 20:23:05.611477 18688 layer_factory.hpp:74] Creating layer drop6
I0316 20:23:05.611485 18688 net.cpp:85] Creating Layer drop6
I0316 20:23:05.611490 18688 net.cpp:381] drop6 <- fc6
I0316 20:23:05.611496 18688 net.cpp:328] drop6 -> fc6 (in-place)
I0316 20:23:05.611505 18688 net.cpp:114] Setting up drop6
I0316 20:23:05.611512 18688 net.cpp:121] Top shape: 50 4096 (204800)
I0316 20:23:05.611516 18688 layer_factory.hpp:74] Creating layer fc7
I0316 20:23:05.611531 18688 net.cpp:85] Creating Layer fc7
I0316 20:23:05.611536 18688 net.cpp:381] fc7 <- fc6
I0316 20:23:05.611542 18688 net.cpp:339] fc7 -> fc7
I0316 20:23:05.611552 18688 net.cpp:114] Setting up fc7
I0316 20:23:06.633990 18688 net.cpp:121] Top shape: 50 4096 (204800)
I0316 20:23:06.634022 18688 layer_factory.hpp:74] Creating layer relu7
I0316 20:23:06.634034 18688 net.cpp:85] Creating Layer relu7
I0316 20:23:06.634042 18688 net.cpp:381] relu7 <- fc7
I0316 20:23:06.634050 18688 net.cpp:328] relu7 -> fc7 (in-place)
I0316 20:23:06.634060 18688 net.cpp:114] Setting up relu7
I0316 20:23:06.634146 18688 net.cpp:121] Top shape: 50 4096 (204800)
I0316 20:23:06.634155 18688 layer_factory.hpp:74] Creating layer drop7
I0316 20:23:06.634171 18688 net.cpp:85] Creating Layer drop7
I0316 20:23:06.634176 18688 net.cpp:381] drop7 <- fc7
I0316 20:23:06.634183 18688 net.cpp:328] drop7 -> fc7 (in-place)
I0316 20:23:06.634191 18688 net.cpp:114] Setting up drop7
I0316 20:23:06.634201 18688 net.cpp:121] Top shape: 50 4096 (204800)
I0316 20:23:06.634204 18688 layer_factory.hpp:74] Creating layer fc8
I0316 20:23:06.634215 18688 net.cpp:85] Creating Layer fc8
I0316 20:23:06.634220 18688 net.cpp:381] fc8 <- fc7
I0316 20:23:06.634227 18688 net.cpp:339] fc8 -> fc8
I0316 20:23:06.634239 18688 net.cpp:114] Setting up fc8
I0316 20:23:06.906968 18688 net.cpp:121] Top shape: 50 1000 (50000)
I0316 20:23:06.907011 18688 layer_factory.hpp:74] Creating layer fc8_fc8_0_split
I0316 20:23:06.907057 18688 net.cpp:85] Creating Layer fc8_fc8_0_split
I0316 20:23:06.907064 18688 net.cpp:381] fc8_fc8_0_split <- fc8
I0316 20:23:06.907074 18688 net.cpp:339] fc8_fc8_0_split -> fc8_fc8_0_split_0
I0316 20:23:06.907086 18688 net.cpp:339] fc8_fc8_0_split -> fc8_fc8_0_split_1
I0316 20:23:06.907094 18688 net.cpp:114] Setting up fc8_fc8_0_split
I0316 20:23:06.907102 18688 net.cpp:121] Top shape: 50 1000 (50000)
I0316 20:23:06.907109 18688 net.cpp:121] Top shape: 50 1000 (50000)
I0316 20:23:06.907112 18688 layer_factory.hpp:74] Creating layer accuracy
I0316 20:23:06.907130 18688 net.cpp:85] Creating Layer accuracy
I0316 20:23:06.907135 18688 net.cpp:381] accuracy <- fc8_fc8_0_split_0
I0316 20:23:06.907141 18688 net.cpp:381] accuracy <- label_data_1_split_0
I0316 20:23:06.907148 18688 net.cpp:339] accuracy -> accuracy
I0316 20:23:06.907156 18688 net.cpp:114] Setting up accuracy
…
