…
I0119 13:30:37.521435  7166 net.cpp:223] The NetState phase (0) differed from the phase (1) specified by a rule in layer data
I0119 13:30:37.521474  7166 net.cpp:223] The NetState phase (0) differed from the phase (1) specified by a rule in layer accuracy
I0119 13:30:37.521683  7166 net.cpp:38] Initializing net from parameters: 
name: "CaffeNet"
layers {
  top: "data"
  top: "label"
  name: "data"
  type: DATA
  data_param {
    source: "/home/bhwang/coco/oneobj_ext20_tr_lvldb"
    mean_file: "../../data/ilsvrc12/imagenet_mean.binaryproto"
    batch_size: 256
    crop_size: 227
    mirror: true
  }
  include {
    phase: TRAIN
  }
}
layers {
  bottom: "data"
  top: "conv1"
  name: "conv1"
  type: CONVOLUTION
  blobs_lr: 1
  blobs_lr: 2
  weight_decay: 1
  weight_decay: 0
  convolution_param {
    num_output: 96
    kernel_size: 11
    stride: 4
    weight_filler {
      type: "gaussian"
      std: 0.01
    }
    bias_filler {
      type: "constant"
      value: 0
    }
  }
}
layers {
  bottom: "conv1"
  top: "conv1"
  name: "relu1"
  type: RELU
}
layers {
  bottom: "conv1"
  top: "pool1"
  name: "pool1"
  type: POOLING
  pooling_param {
    pool: MAX
    kernel_size: 3
    stride: 2
  }
}
layers {
  bottom: "pool1"
  top: "norm1"
  name: "norm1"
  type: LRN
  lrn_param {
    local_size: 5
    alpha: 0.0001
    beta: 0.75
  }
}
layers {
  bottom: "norm1"
  top: "conv2"
  name: "conv2"
  type: CONVOLUTION
  blobs_lr: 1
  blobs_lr: 2
  weight_decay: 1
  weight_decay: 0
  convolution_param {
    num_output: 256
    pad: 2
    kernel_size: 5
    group: 2
    weight_filler {
      type: "gaussian"
      std: 0.01
    }
    bias_filler {
      type: "constant"
      value: 1
    }
  }
}
layers {
  bottom: "conv2"
  top: "conv2"
  name: "relu2"
  type: RELU
}
layers {
  bottom: "conv2"
  top: "pool2"
  name: "pool2"
  type: POOLING
  pooling_param {
    pool: MAX
    kernel_size: 3
    stride: 2
  }
}
layers {
  bottom: "pool2"
  top: "norm2"
  name: "norm2"
  type: LRN
  lrn_param {
    local_size: 5
    alpha: 0.0001
    beta: 0.75
  }
}
layers {
  bottom: "norm2"
  top: "conv3"
  name: "conv3"
  type: CONVOLUTION
  blobs_lr: 1
  blobs_lr: 2
  weight_decay: 1
  weight_decay: 0
  convolution_param {
    num_output: 384
    pad: 1
    kernel_size: 3
    weight_filler {
      type: "gaussian"
      std: 0.01
    }
    bias_filler {
      type: "constant"
      value: 0
    }
  }
}
layers {
  bottom: "conv3"
  top: "conv3"
  name: "relu3"
  type: RELU
}
layers {
  bottom: "conv3"
  top: "conv4"
  name: "conv4"
  type: CONVOLUTION
  blobs_lr: 1
  blobs_lr: 2
  weight_decay: 1
  weight_decay: 0
  convolution_param {
    num_output: 384
    pad: 1
    kernel_size: 3
    group: 2
    weight_filler {
      type: "gaussian"
      std: 0.01
    }
    bias_filler {
      type: "constant"
      value: 1
    }
  }
}
layers {
  bottom: "conv4"
  top: "conv4"
  name: "relu4"
  type: RELU
}
layers {
  bottom: "conv4"
  top: "conv5"
  name: "conv5"
  type: CONVOLUTION
  blobs_lr: 1
  blobs_lr: 2
  weight_decay: 1
  weight_decay: 0
  convolution_param {
    num_output: 256
    pad: 1
    kernel_size: 3
    group: 2
    weight_filler {
      type: "gaussian"
      std: 0.01
    }
    bias_filler {
      type: "constant"
      value: 1
    }
  }
}
layers {
  bottom: "conv5"
  top: "conv5"
  name: "relu5"
  type: RELU
}
layers {
  bottom: "conv5"
  top: "pool5"
  name: "pool5"
  type: POOLING
  pooling_param {
    pool: MAX
    kernel_size: 3
    stride: 2
  }
}
layers {
  bottom: "pool5"
  top: "fc6"
  name: "fc6"
  type: INNER_PRODUCT
  blobs_lr: 1
  blobs_lr: 2
  weight_decay: 1
  weight_decay: 0
  inner_product_param {
    num_output: 4096
    weight_filler {
      type: "gaussian"
      std: 0.005
    }
    bias_filler {
      type: "constant"
      value: 1
    }
  }
}
layers {
  bottom: "fc6"
  top: "fc6"
  name: "relu6"
  type: RELU
}
layers {
  bottom: "fc6"
  top: "fc6"
  name: "drop6"
  type: DROPOUT
  dropout_param {
    dropout_ratio: 0.5
  }
}
layers {
  bottom: "fc6"
  top: "fc7"
  name: "fc7"
  type: INNER_PRODUCT
  blobs_lr: 1
  blobs_lr: 2
  weight_decay: 1
  weight_decay: 0
  inner_product_param {
    num_output: 4096
    weight_filler {
      type: "gaussian"
      std: 0.005
    }
    bias_filler {
      type: "constant"
      value: 1
    }
  }
}
layers {
  bottom: "fc7"
  top: "fc7"
  name: "relu7"
  type: RELU
}
layers {
  bottom: "fc7"
  top: "fc7"
  name: "drop7"
  type: DROPOUT
  dropout_param {
    dropout_ratio: 0.5
  }
}
layers {
  bottom: "fc7"
  top: "fc8"
  name: "fc8_80"
  type: INNER_PRODUCT
  blobs_lr: 1
  blobs_lr: 2
  weight_decay: 1
  weight_decay: 0
  inner_product_param {
    num_output: 80
    weight_filler {
      type: "gaussian"
      std: 0.01
    }
    bias_filler {
      type: "constant"
      value: 0
    }
  }
}
layers {
  bottom: "fc8"
  bottom: "label"
  top: "loss"
  name: "loss"
  type: SOFTMAX_LOSS
}
state {
  phase: TRAIN
}
I0119 13:30:37.521832  7166 net.cpp:66] Creating Layer data
I0119 13:30:37.521852  7166 net.cpp:290] data -> data
I0119 13:30:37.521884  7166 net.cpp:290] data -> label
I0119 13:30:37.521934  7166 data_layer.cpp:179] Opening leveldb /home/bhwang/coco/oneobj_ext20_tr_lvldb
I0119 13:30:37.643882  7166 data_layer.cpp:262] output data size: 256,3,227,227
I0119 13:30:37.643919  7166 data_layer.cpp:281] Loading mean file from../../data/ilsvrc12/imagenet_mean.binaryproto
I0119 13:30:37.702188  7166 net.cpp:83] Top shape: 256 3 227 227 (39574272)
I0119 13:30:37.702235  7166 net.cpp:83] Top shape: 256 1 1 1 (256)
I0119 13:30:37.702252  7166 net.cpp:130] data does not need backward computation.
I0119 13:30:37.702275  7166 net.cpp:66] Creating Layer conv1
I0119 13:30:37.702286  7166 net.cpp:329] conv1 <- data
I0119 13:30:37.702316  7166 net.cpp:290] conv1 -> conv1
I0119 13:30:37.704375  7166 net.cpp:83] Top shape: 256 96 55 55 (74342400)
I0119 13:30:37.704421  7166 net.cpp:125] conv1 needs backward computation.
I0119 13:30:37.704440  7166 net.cpp:66] Creating Layer relu1
I0119 13:30:37.704452  7166 net.cpp:329] relu1 <- conv1
I0119 13:30:37.704468  7166 net.cpp:280] relu1 -> conv1 (in-place)
I0119 13:30:37.704490  7166 net.cpp:83] Top shape: 256 96 55 55 (74342400)
I0119 13:30:37.704507  7166 net.cpp:125] relu1 needs backward computation.
I0119 13:30:37.704522  7166 net.cpp:66] Creating Layer pool1
I0119 13:30:37.704535  7166 net.cpp:329] pool1 <- conv1
I0119 13:30:37.704560  7166 net.cpp:290] pool1 -> pool1
I0119 13:30:37.704589  7166 net.cpp:83] Top shape: 256 96 27 27 (17915904)
I0119 13:30:37.704602  7166 net.cpp:125] pool1 needs backward computation.
I0119 13:30:37.704618  7166 net.cpp:66] Creating Layer norm1
I0119 13:30:37.704632  7166 net.cpp:329] norm1 <- pool1
I0119 13:30:37.704648  7166 net.cpp:290] norm1 -> norm1
I0119 13:30:37.704670  7166 net.cpp:83] Top shape: 256 96 27 27 (17915904)
I0119 13:30:37.704684  7166 net.cpp:125] norm1 needs backward computation.
I0119 13:30:37.704699  7166 net.cpp:66] Creating Layer conv2
I0119 13:30:37.704711  7166 net.cpp:329] conv2 <- norm1
I0119 13:30:37.704728  7166 net.cpp:290] conv2 -> conv2
I0119 13:30:37.722884  7166 net.cpp:83] Top shape: 256 256 27 27 (47775744)
I0119 13:30:37.722939  7166 net.cpp:125] conv2 needs backward computation.
I0119 13:30:37.722959  7166 net.cpp:66] Creating Layer relu2
I0119 13:30:37.722970  7166 net.cpp:329] relu2 <- conv2
I0119 13:30:37.722985  7166 net.cpp:280] relu2 -> conv2 (in-place)
I0119 13:30:37.723003  7166 net.cpp:83] Top shape: 256 256 27 27 (47775744)
I0119 13:30:37.723018  7166 net.cpp:125] relu2 needs backward computation.
I0119 13:30:37.723032  7166 net.cpp:66] Creating Layer pool2
I0119 13:30:37.723045  7166 net.cpp:329] pool2 <- conv2
I0119 13:30:37.723073  7166 net.cpp:290] pool2 -> pool2
I0119 13:30:37.723124  7166 net.cpp:83] Top shape: 256 256 13 13 (11075584)
I0119 13:30:37.723140  7166 net.cpp:125] pool2 needs backward computation.
I0119 13:30:37.723156  7166 net.cpp:66] Creating Layer norm2
I0119 13:30:37.723170  7166 net.cpp:329] norm2 <- pool2
I0119 13:30:37.723186  7166 net.cpp:290] norm2 -> norm2
I0119 13:30:37.723212  7166 net.cpp:83] Top shape: 256 256 13 13 (11075584)
I0119 13:30:37.723227  7166 net.cpp:125] norm2 needs backward computation.
I0119 13:30:37.723243  7166 net.cpp:66] Creating Layer conv3
I0119 13:30:37.723258  7166 net.cpp:329] conv3 <- norm2
I0119 13:30:37.723274  7166 net.cpp:290] conv3 -> conv3
I0119 13:30:37.775254  7166 net.cpp:83] Top shape: 256 384 13 13 (16613376)
I0119 13:30:37.775311  7166 net.cpp:125] conv3 needs backward computation.
I0119 13:30:37.775331  7166 net.cpp:66] Creating Layer relu3
I0119 13:30:37.775341  7166 net.cpp:329] relu3 <- conv3
I0119 13:30:37.775357  7166 net.cpp:280] relu3 -> conv3 (in-place)
I0119 13:30:37.775374  7166 net.cpp:83] Top shape: 256 384 13 13 (16613376)
I0119 13:30:37.775387  7166 net.cpp:125] relu3 needs backward computation.
I0119 13:30:37.775403  7166 net.cpp:66] Creating Layer conv4
I0119 13:30:37.775414  7166 net.cpp:329] conv4 <- conv3
I0119 13:30:37.775430  7166 net.cpp:290] conv4 -> conv4
I0119 13:30:37.814729  7166 net.cpp:83] Top shape: 256 384 13 13 (16613376)
I0119 13:30:37.814752  7166 net.cpp:125] conv4 needs backward computation.
I0119 13:30:37.814767  7166 net.cpp:66] Creating Layer relu4
I0119 13:30:37.814782  7166 net.cpp:329] relu4 <- conv4
I0119 13:30:37.814798  7166 net.cpp:280] relu4 -> conv4 (in-place)
I0119 13:30:37.814816  7166 net.cpp:83] Top shape: 256 384 13 13 (16613376)
I0119 13:30:37.814831  7166 net.cpp:125] relu4 needs backward computation.
I0119 13:30:37.814846  7166 net.cpp:66] Creating Layer conv5
I0119 13:30:37.814859  7166 net.cpp:329] conv5 <- conv4
I0119 13:30:37.814877  7166 net.cpp:290] conv5 -> conv5
I0119 13:30:37.841245  7166 net.cpp:83] Top shape: 256 256 13 13 (11075584)
I0119 13:30:37.841276  7166 net.cpp:125] conv5 needs backward computation.
I0119 13:30:37.841292  7166 net.cpp:66] Creating Layer relu5
I0119 13:30:37.841305  7166 net.cpp:329] relu5 <- conv5
I0119 13:30:37.841320  7166 net.cpp:280] relu5 -> conv5 (in-place)
I0119 13:30:37.841339  7166 net.cpp:83] Top shape: 256 256 13 13 (11075584)
I0119 13:30:37.841353  7166 net.cpp:125] relu5 needs backward computation.
I0119 13:30:37.841369  7166 net.cpp:66] Creating Layer pool5
I0119 13:30:37.841382  7166 net.cpp:329] pool5 <- conv5
I0119 13:30:37.841398  7166 net.cpp:290] pool5 -> pool5
I0119 13:30:37.841419  7166 net.cpp:83] Top shape: 256 256 6 6 (2359296)
I0119 13:30:37.841434  7166 net.cpp:125] pool5 needs backward computation.
I0119 13:30:37.841454  7166 net.cpp:66] Creating Layer fc6
I0119 13:30:37.841467  7166 net.cpp:329] fc6 <- pool5
I0119 13:30:37.841486  7166 net.cpp:290] fc6 -> fc6
I0119 13:30:40.028370  7166 net.cpp:83] Top shape: 256 4096 1 1 (1048576)
I0119 13:30:40.028431  7166 net.cpp:125] fc6 needs backward computation.
I0119 13:30:40.028445  7166 net.cpp:66] Creating Layer relu6
I0119 13:30:40.028452  7166 net.cpp:329] relu6 <- fc6
I0119 13:30:40.028463  7166 net.cpp:280] relu6 -> fc6 (in-place)
I0119 13:30:40.028476  7166 net.cpp:83] Top shape: 256 4096 1 1 (1048576)
I0119 13:30:40.028483  7166 net.cpp:125] relu6 needs backward computation.
I0119 13:30:40.028491  7166 net.cpp:66] Creating Layer drop6
I0119 13:30:40.028497  7166 net.cpp:329] drop6 <- fc6
I0119 13:30:40.028506  7166 net.cpp:280] drop6 -> fc6 (in-place)
I0119 13:30:40.028523  7166 net.cpp:83] Top shape: 256 4096 1 1 (1048576)
I0119 13:30:40.028532  7166 net.cpp:125] drop6 needs backward computation.
I0119 13:30:40.028542  7166 net.cpp:66] Creating Layer fc7
I0119 13:30:40.028548  7166 net.cpp:329] fc7 <- fc6
I0119 13:30:40.028558  7166 net.cpp:290] fc7 -> fc7
I0119 13:30:41.012601  7166 net.cpp:83] Top shape: 256 4096 1 1 (1048576)
I0119 13:30:41.012662  7166 net.cpp:125] fc7 needs backward computation.
I0119 13:30:41.012687  7166 net.cpp:66] Creating Layer relu7
I0119 13:30:41.012724  7166 net.cpp:329] relu7 <- fc7
I0119 13:30:41.012735  7166 net.cpp:280] relu7 -> fc7 (in-place)
I0119 13:30:41.012748  7166 net.cpp:83] Top shape: 256 4096 1 1 (1048576)
I0119 13:30:41.012755  7166 net.cpp:125] relu7 needs backward computation.
I0119 13:30:41.012764  7166 net.cpp:66] Creating Layer drop7
I0119 13:30:41.012770  7166 net.cpp:329] drop7 <- fc7
I0119 13:30:41.012778  7166 net.cpp:280] drop7 -> fc7 (in-place)
I0119 13:30:41.012787  7166 net.cpp:83] Top shape: 256 4096 1 1 (1048576)
I0119 13:30:41.012794  7166 net.cpp:125] drop7 needs backward computation.
I0119 13:30:41.012804  7166 net.cpp:66] Creating Layer fc8_80
I0119 13:30:41.012809  7166 net.cpp:329] fc8_80 <- fc7
I0119 13:30:41.012817  7166 net.cpp:290] fc8_80 -> fc8
I0119 13:30:41.031852  7166 net.cpp:83] Top shape: 256 80 1 1 (20480)
I0119 13:30:41.031883  7166 net.cpp:125] fc8_80 needs backward computation.
I0119 13:30:41.031893  7166 net.cpp:66] Creating Layer loss
I0119 13:30:41.031899  7166 net.cpp:329] loss <- fc8
I0119 13:30:41.031908  7166 net.cpp:329] loss <- label
I0119 13:30:41.031916  7166 net.cpp:290] loss -> loss
I0119 13:30:41.031934  7166 net.cpp:83] Top shape: 1 1 1 1 (1)
I0119 13:30:41.031944  7166 net.cpp:125] loss needs backward computation.
I0119 13:30:41.031950  7166 net.cpp:156] This network produces output loss
I0119 13:30:41.031975  7166 net.cpp:402] Collecting Learning Rate and Weight Decay.
I0119 13:30:41.031986  7166 net.cpp:167] Network initialization done.
I0119 13:30:41.032006  7166 net.cpp:168] Memory required for data: 0
I0119 13:30:41.033146  7166 solver.cpp:156] Creating testing net (#0) specified by net file: genmasknet_train_val.prototxt
I0119 13:30:41.033198  7166 net.cpp:223] The NetState phase (1) differed from the phase (0) specified by a rule in layer data
I0119 13:30:41.033401  7166 net.cpp:38] Initializing net from parameters: 
name: "CaffeNet"
layers {
  top: "data"
  top: "label"
  name: "data"
  type: DATA
  data_param {
    source: "/home/bhwang/coco/oneobj_ext20_val_lvldb"
    mean_file: "../../data/ilsvrc12/imagenet_mean.binaryproto"
    batch_size: 50
    crop_size: 227
    mirror: false
  }
  include {
    phase: TEST
  }
}
layers {
  bottom: "data"
  top: "conv1"
  name: "conv1"
  type: CONVOLUTION
  blobs_lr: 1
  blobs_lr: 2
  weight_decay: 1
  weight_decay: 0
  convolution_param {
    num_output: 96
    kernel_size: 11
    stride: 4
    weight_filler {
      type: "gaussian"
      std: 0.01
    }
    bias_filler {
      type: "constant"
      value: 0
    }
  }
}
layers {
  bottom: "conv1"
  top: "conv1"
  name: "relu1"
  type: RELU
}
layers {
  bottom: "conv1"
  top: "pool1"
  name: "pool1"
  type: POOLING
  pooling_param {
    pool: MAX
    kernel_size: 3
    stride: 2
  }
}
layers {
  bottom: "pool1"
  top: "norm1"
  name: "norm1"
  type: LRN
  lrn_param {
    local_size: 5
    alpha: 0.0001
    beta: 0.75
  }
}
layers {
  bottom: "norm1"
  top: "conv2"
  name: "conv2"
  type: CONVOLUTION
  blobs_lr: 1
  blobs_lr: 2
  weight_decay: 1
  weight_decay: 0
  convolution_param {
    num_output: 256
    pad: 2
    kernel_size: 5
    group: 2
    weight_filler {
      type: "gaussian"
      std: 0.01
    }
    bias_filler {
      type: "constant"
      value: 1
    }
  }
}
layers {
  bottom: "conv2"
  top: "conv2"
  name: "relu2"
  type: RELU
}
layers {
  bottom: "conv2"
  top: "pool2"
  name: "pool2"
  type: POOLING
  pooling_param {
    pool: MAX
    kernel_size: 3
    stride: 2
  }
}
layers {
  bottom: "pool2"
  top: "norm2"
  name: "norm2"
  type: LRN
  lrn_param {
    local_size: 5
    alpha: 0.0001
    beta: 0.75
  }
}
layers {
  bottom: "norm2"
  top: "conv3"
  name: "conv3"
  type: CONVOLUTION
  blobs_lr: 1
  blobs_lr: 2
  weight_decay: 1
  weight_decay: 0
  convolution_param {
    num_output: 384
    pad: 1
    kernel_size: 3
    weight_filler {
      type: "gaussian"
      std: 0.01
    }
    bias_filler {
      type: "constant"
      value: 0
    }
  }
}
layers {
  bottom: "conv3"
  top: "conv3"
  name: "relu3"
  type: RELU
}
layers {
  bottom: "conv3"
  top: "conv4"
  name: "conv4"
  type: CONVOLUTION
  blobs_lr: 1
  blobs_lr: 2
  weight_decay: 1
  weight_decay: 0
  convolution_param {
    num_output: 384
    pad: 1
    kernel_size: 3
    group: 2
    weight_filler {
      type: "gaussian"
      std: 0.01
    }
    bias_filler {
      type: "constant"
      value: 1
    }
  }
}
layers {
  bottom: "conv4"
  top: "conv4"
  name: "relu4"
  type: RELU
}
layers {
  bottom: "conv4"
  top: "conv5"
  name: "conv5"
  type: CONVOLUTION
  blobs_lr: 1
  blobs_lr: 2
  weight_decay: 1
  weight_decay: 0
  convolution_param {
    num_output: 256
    pad: 1
    kernel_size: 3
    group: 2
    weight_filler {
      type: "gaussian"
      std: 0.01
    }
    bias_filler {
      type: "constant"
      value: 1
    }
  }
}
layers {
  bottom: "conv5"
  top: "conv5"
  name: "relu5"
  type: RELU
}
layers {
  bottom: "conv5"
  top: "pool5"
  name: "pool5"
  type: POOLING
  pooling_param {
    pool: MAX
    kernel_size: 3
    stride: 2
  }
}
layers {
  bottom: "pool5"
  top: "fc6"
  name: "fc6"
  type: INNER_PRODUCT
  blobs_lr: 1
  blobs_lr: 2
  weight_decay: 1
  weight_decay: 0
  inner_product_param {
    num_output: 4096
    weight_filler {
      type: "gaussian"
      std: 0.005
    }
    bias_filler {
      type: "constant"
      value: 1
    }
  }
}
layers {
  bottom: "fc6"
  top: "fc6"
  name: "relu6"
  type: RELU
}
layers {
  bottom: "fc6"
  top: "fc6"
  name: "drop6"
  type: DROPOUT
  dropout_param {
    dropout_ratio: 0.5
  }
}
layers {
  bottom: "fc6"
  top: "fc7"
  name: "fc7"
  type: INNER_PRODUCT
  blobs_lr: 1
  blobs_lr: 2
  weight_decay: 1
  weight_decay: 0
  inner_product_param {
    num_output: 4096
    weight_filler {
      type: "gaussian"
      std: 0.005
    }
    bias_filler {
      type: "constant"
      value: 1
    }
  }
}
layers {
  bottom: "fc7"
  top: "fc7"
  name: "relu7"
  type: RELU
}
layers {
  bottom: "fc7"
  top: "fc7"
  name: "drop7"
  type: DROPOUT
  dropout_param {
    dropout_ratio: 0.5
  }
}
layers {
  bottom: "fc7"
  top: "fc8"
  name: "fc8_80"
  type: INNER_PRODUCT
  blobs_lr: 1
  blobs_lr: 2
  weight_decay: 1
  weight_decay: 0
  inner_product_param {
    num_output: 80
    weight_filler {
      type: "gaussian"
      std: 0.01
    }
    bias_filler {
      type: "constant"
      value: 0
    }
  }
}
layers {
  bottom: "fc8"
  bottom: "label"
  top: "accuracy"
  name: "accuracy"
  type: ACCURACY
  include {
    phase: TEST
  }
}
layers {
  bottom: "fc8"
  bottom: "label"
  top: "loss"
  name: "loss"
  type: SOFTMAX_LOSS
}
state {
  phase: TEST
}
I0119 13:30:41.033550  7166 net.cpp:66] Creating Layer data
I0119 13:30:41.033565  7166 net.cpp:290] data -> data
I0119 13:30:41.033576  7166 net.cpp:290] data -> label
I0119 13:30:41.033601  7166 data_layer.cpp:179] Opening leveldb /home/bhwang/coco/oneobj_ext20_val_lvldb
I0119 13:30:41.161938  7166 data_layer.cpp:262] output data size: 50,3,227,227
I0119 13:30:41.161985  7166 data_layer.cpp:281] Loading mean file from../../data/ilsvrc12/imagenet_mean.binaryproto
I0119 13:30:41.174391  7166 net.cpp:83] Top shape: 50 3 227 227 (7729350)
I0119 13:30:41.174445  7166 net.cpp:83] Top shape: 50 1 1 1 (50)
I0119 13:30:41.174455  7166 net.cpp:130] data does not need backward computation.
I0119 13:30:41.174470  7166 net.cpp:66] Creating Layer label_data_1_split
I0119 13:30:41.174479  7166 net.cpp:329] label_data_1_split <- label
I0119 13:30:41.174497  7166 net.cpp:280] label_data_1_split -> label (in-place)
I0119 13:30:41.174510  7166 net.cpp:290] label_data_1_split -> label_data_1_split_1
I0119 13:30:41.174530  7166 net.cpp:83] Top shape: 50 1 1 1 (50)
I0119 13:30:41.174537  7166 net.cpp:83] Top shape: 50 1 1 1 (50)
I0119 13:30:41.174543  7166 net.cpp:130] label_data_1_split does not need backward computation.
I0119 13:30:41.174556  7166 net.cpp:66] Creating Layer conv1
I0119 13:30:41.174566  7166 net.cpp:329] conv1 <- data
I0119 13:30:41.174585  7166 net.cpp:290] conv1 -> conv1
I0119 13:30:41.176578  7166 net.cpp:83] Top shape: 50 96 55 55 (14520000)
I0119 13:30:41.176626  7166 net.cpp:125] conv1 needs backward computation.
I0119 13:30:41.176669  7166 net.cpp:66] Creating Layer relu1
I0119 13:30:41.176677  7166 net.cpp:329] relu1 <- conv1
I0119 13:30:41.176687  7166 net.cpp:280] relu1 -> conv1 (in-place)
I0119 13:30:41.176698  7166 net.cpp:83] Top shape: 50 96 55 55 (14520000)
I0119 13:30:41.176707  7166 net.cpp:125] relu1 needs backward computation.
I0119 13:30:41.176717  7166 net.cpp:66] Creating Layer pool1
I0119 13:30:41.176723  7166 net.cpp:329] pool1 <- conv1
I0119 13:30:41.176733  7166 net.cpp:290] pool1 -> pool1
I0119 13:30:41.176746  7166 net.cpp:83] Top shape: 50 96 27 27 (3499200)
I0119 13:30:41.176755  7166 net.cpp:125] pool1 needs backward computation.
I0119 13:30:41.176764  7166 net.cpp:66] Creating Layer norm1
I0119 13:30:41.176779  7166 net.cpp:329] norm1 <- pool1
I0119 13:30:41.176787  7166 net.cpp:290] norm1 -> norm1
I0119 13:30:41.176798  7166 net.cpp:83] Top shape: 50 96 27 27 (3499200)
I0119 13:30:41.176805  7166 net.cpp:125] norm1 needs backward computation.
I0119 13:30:41.176815  7166 net.cpp:66] Creating Layer conv2
I0119 13:30:41.176820  7166 net.cpp:329] conv2 <- norm1
I0119 13:30:41.176851  7166 net.cpp:290] conv2 -> conv2
I0119 13:30:41.195051  7166 net.cpp:83] Top shape: 50 256 27 27 (9331200)
I0119 13:30:41.195096  7166 net.cpp:125] conv2 needs backward computation.
I0119 13:30:41.195108  7166 net.cpp:66] Creating Layer relu2
I0119 13:30:41.195116  7166 net.cpp:329] relu2 <- conv2
I0119 13:30:41.195128  7166 net.cpp:280] relu2 -> conv2 (in-place)
I0119 13:30:41.195142  7166 net.cpp:83] Top shape: 50 256 27 27 (9331200)
I0119 13:30:41.195148  7166 net.cpp:125] relu2 needs backward computation.
I0119 13:30:41.195160  7166 net.cpp:66] Creating Layer pool2
I0119 13:30:41.195168  7166 net.cpp:329] pool2 <- conv2
I0119 13:30:41.195178  7166 net.cpp:290] pool2 -> pool2
I0119 13:30:41.195196  7166 net.cpp:83] Top shape: 50 256 13 13 (2163200)
I0119 13:30:41.195207  7166 net.cpp:125] pool2 needs backward computation.
I0119 13:30:41.195216  7166 net.cpp:66] Creating Layer norm2
I0119 13:30:41.195224  7166 net.cpp:329] norm2 <- pool2
I0119 13:30:41.195231  7166 net.cpp:290] norm2 -> norm2
I0119 13:30:41.195242  7166 net.cpp:83] Top shape: 50 256 13 13 (2163200)
I0119 13:30:41.195250  7166 net.cpp:125] norm2 needs backward computation.
I0119 13:30:41.195260  7166 net.cpp:66] Creating Layer conv3
I0119 13:30:41.195266  7166 net.cpp:329] conv3 <- norm2
I0119 13:30:41.195274  7166 net.cpp:290] conv3 -> conv3
I0119 13:30:41.246991  7166 net.cpp:83] Top shape: 50 384 13 13 (3244800)
I0119 13:30:41.247020  7166 net.cpp:125] conv3 needs backward computation.
I0119 13:30:41.247031  7166 net.cpp:66] Creating Layer relu3
I0119 13:30:41.247038  7166 net.cpp:329] relu3 <- conv3
I0119 13:30:41.247048  7166 net.cpp:280] relu3 -> conv3 (in-place)
I0119 13:30:41.247058  7166 net.cpp:83] Top shape: 50 384 13 13 (3244800)
I0119 13:30:41.247067  7166 net.cpp:125] relu3 needs backward computation.
I0119 13:30:41.247076  7166 net.cpp:66] Creating Layer conv4
I0119 13:30:41.247083  7166 net.cpp:329] conv4 <- conv3
I0119 13:30:41.247092  7166 net.cpp:290] conv4 -> conv4
I0119 13:30:41.286041  7166 net.cpp:83] Top shape: 50 384 13 13 (3244800)
I0119 13:30:41.286062  7166 net.cpp:125] conv4 needs backward computation.
I0119 13:30:41.286072  7166 net.cpp:66] Creating Layer relu4
I0119 13:30:41.286079  7166 net.cpp:329] relu4 <- conv4
I0119 13:30:41.286088  7166 net.cpp:280] relu4 -> conv4 (in-place)
I0119 13:30:41.286098  7166 net.cpp:83] Top shape: 50 384 13 13 (3244800)
I0119 13:30:41.286104  7166 net.cpp:125] relu4 needs backward computation.
I0119 13:30:41.286113  7166 net.cpp:66] Creating Layer conv5
I0119 13:30:41.286119  7166 net.cpp:329] conv5 <- conv4
I0119 13:30:41.286128  7166 net.cpp:290] conv5 -> conv5
I0119 13:30:41.312381  7166 net.cpp:83] Top shape: 50 256 13 13 (2163200)
I0119 13:30:41.312432  7166 net.cpp:125] conv5 needs backward computation.
I0119 13:30:41.312444  7166 net.cpp:66] Creating Layer relu5
I0119 13:30:41.312451  7166 net.cpp:329] relu5 <- conv5
I0119 13:30:41.312469  7166 net.cpp:280] relu5 -> conv5 (in-place)
I0119 13:30:41.312510  7166 net.cpp:83] Top shape: 50 256 13 13 (2163200)
I0119 13:30:41.312517  7166 net.cpp:125] relu5 needs backward computation.
I0119 13:30:41.312530  7166 net.cpp:66] Creating Layer pool5
I0119 13:30:41.312536  7166 net.cpp:329] pool5 <- conv5
I0119 13:30:41.312546  7166 net.cpp:290] pool5 -> pool5
I0119 13:30:41.312561  7166 net.cpp:83] Top shape: 50 256 6 6 (460800)
I0119 13:30:41.312569  7166 net.cpp:125] pool5 needs backward computation.
I0119 13:30:41.312578  7166 net.cpp:66] Creating Layer fc6
I0119 13:30:41.312585  7166 net.cpp:329] fc6 <- pool5
I0119 13:30:41.312594  7166 net.cpp:290] fc6 -> fc6
I0119 13:30:43.487665  7166 net.cpp:83] Top shape: 50 4096 1 1 (204800)
I0119 13:30:43.487725  7166 net.cpp:125] fc6 needs backward computation.
I0119 13:30:43.487738  7166 net.cpp:66] Creating Layer relu6
I0119 13:30:43.487747  7166 net.cpp:329] relu6 <- fc6
I0119 13:30:43.487758  7166 net.cpp:280] relu6 -> fc6 (in-place)
I0119 13:30:43.487771  7166 net.cpp:83] Top shape: 50 4096 1 1 (204800)
I0119 13:30:43.487778  7166 net.cpp:125] relu6 needs backward computation.
I0119 13:30:43.487788  7166 net.cpp:66] Creating Layer drop6
I0119 13:30:43.487795  7166 net.cpp:329] drop6 <- fc6
I0119 13:30:43.487803  7166 net.cpp:280] drop6 -> fc6 (in-place)
I0119 13:30:43.487815  7166 net.cpp:83] Top shape: 50 4096 1 1 (204800)
I0119 13:30:43.487823  7166 net.cpp:125] drop6 needs backward computation.
I0119 13:30:43.487833  7166 net.cpp:66] Creating Layer fc7
I0119 13:30:43.487841  7166 net.cpp:329] fc7 <- fc6
I0119 13:30:43.487850  7166 net.cpp:290] fc7 -> fc7
I0119 13:30:44.442339  7166 net.cpp:83] Top shape: 50 4096 1 1 (204800)
I0119 13:30:44.442404  7166 net.cpp:125] fc7 needs backward computation.
I0119 13:30:44.442419  7166 net.cpp:66] Creating Layer relu7
I0119 13:30:44.442426  7166 net.cpp:329] relu7 <- fc7
I0119 13:30:44.442437  7166 net.cpp:280] relu7 -> fc7 (in-place)
I0119 13:30:44.442451  7166 net.cpp:83] Top shape: 50 4096 1 1 (204800)
I0119 13:30:44.442458  7166 net.cpp:125] relu7 needs backward computation.
I0119 13:30:44.442466  7166 net.cpp:66] Creating Layer drop7
I0119 13:30:44.442472  7166 net.cpp:329] drop7 <- fc7
I0119 13:30:44.442481  7166 net.cpp:280] drop7 -> fc7 (in-place)
I0119 13:30:44.442491  7166 net.cpp:83] Top shape: 50 4096 1 1 (204800)
I0119 13:30:44.442497  7166 net.cpp:125] drop7 needs backward computation.
I0119 13:30:44.442507  7166 net.cpp:66] Creating Layer fc8_80
I0119 13:30:44.442513  7166 net.cpp:329] fc8_80 <- fc7
I0119 13:30:44.442523  7166 net.cpp:290] fc8_80 -> fc8
I0119 13:30:44.461144  7166 net.cpp:83] Top shape: 50 80 1 1 (4000)
I0119 13:30:44.461161  7166 net.cpp:125] fc8_80 needs backward computation.
I0119 13:30:44.461184  7166 net.cpp:66] Creating Layer fc8_fc8_80_0_split
I0119 13:30:44.461190  7166 net.cpp:329] fc8_fc8_80_0_split <- fc8
I0119 13:30:44.461204  7166 net.cpp:280] fc8_fc8_80_0_split -> fc8 (in-place)
I0119 13:30:44.461212  7166 net.cpp:290] fc8_fc8_80_0_split -> fc8_fc8_80_0_split_1
I0119 13:30:44.461226  7166 net.cpp:83] Top shape: 50 80 1 1 (4000)
I0119 13:30:44.461233  7166 net.cpp:83] Top shape: 50 80 1 1 (4000)
I0119 13:30:44.461241  7166 net.cpp:125] fc8_fc8_80_0_split needs backward computation.
I0119 13:30:44.461249  7166 net.cpp:66] Creating Layer accuracy
I0119 13:30:44.461256  7166 net.cpp:329] accuracy <- fc8
I0119 13:30:44.461263  7166 net.cpp:329] accuracy <- label
I0119 13:30:44.461273  7166 net.cpp:290] accuracy -> accuracy
I0119 13:30:44.461292  7166 net.cpp:83] Top shape: 1 1 1 1 (1)
I0119 13:30:44.461300  7166 net.cpp:125] accuracy needs backward computation.
I0119 13:30:44.461310  7166 net.cpp:66] Creating Layer loss
I0119 13:30:44.461318  7166 net.cpp:329] loss <- fc8_fc8_80_0_split_1
I0119 13:30:44.461324  7166 net.cpp:329] loss <- label_data_1_split_1
I0119 13:30:44.461333  7166 net.cpp:290] loss -> loss
I0119 13:30:44.461345  7166 net.cpp:83] Top shape: 1 1 1 1 (1)
I0119 13:30:44.461354  7166 net.cpp:125] loss needs backward computation.
I0119 13:30:44.461366  7166 net.cpp:156] This network produces output accuracy
I0119 13:30:44.461415  7166 net.cpp:156] This network produces output loss
I0119 13:30:44.461439  7166 net.cpp:402] Collecting Learning Rate and Weight Decay.
I0119 13:30:44.461448  7166 net.cpp:167] Network initialization done.
I0119 13:30:44.461454  7166 net.cpp:168] Memory required for data: 0
…
